{
  "nodes": [
    {
      "op": "null", 
      "name": "data", 
      "inputs": []
    }, 
    {
      "op": "null", 
      "name": "conv1_weight", 
      "attr": {
        "kernel": "(3, 3)", 
        "num_filter": "10"
      }, 
      "inputs": []
    }, 
    {
      "op": "null", 
      "name": "conv1_bias", 
      "attr": {
        "kernel": "(3, 3)", 
        "num_filter": "10"
      }, 
      "inputs": []
    }, 
    {
      "op": "Convolution", 
      "name": "conv1", 
      "attr": {
        "kernel": "(3, 3)", 
        "num_filter": "10"
      }, 
      "inputs": [[0, 0, 0], [1, 0, 0], [2, 0, 0]]
    }, 
    {
      "op": "null", 
      "name": "prelu1_gamma", 
      "attr": {
        "__init__": "[\"Constant\", {\"value\": 0.25}]", 
        "act_type": "prelu"
      }, 
      "inputs": []
    }, 
    {
      "op": "LeakyReLU", 
      "name": "prelu1", 
      "attr": {"act_type": "prelu"}, 
      "inputs": [[3, 0, 0], [4, 0, 0]]
    }, 
    {
      "op": "Pooling", 
      "name": "pool1", 
      "attr": {
        "kernel": "(2, 2)", 
        "pool_type": "max", 
        "pooling_convention": "full", 
        "stride": "(2, 2)"
      }, 
      "inputs": [[5, 0, 0]]
    }, 
    {
      "op": "null", 
      "name": "conv2_weight", 
      "attr": {
        "kernel": "(3, 3)", 
        "num_filter": "16"
      }, 
      "inputs": []
    }, 
    {
      "op": "null", 
      "name": "conv2_bias", 
      "attr": {
        "kernel": "(3, 3)", 
        "num_filter": "16"
      }, 
      "inputs": []
    }, 
    {
      "op": "Convolution", 
      "name": "conv2", 
      "attr": {
        "kernel": "(3, 3)", 
        "num_filter": "16"
      }, 
      "inputs": [[6, 0, 0], [7, 0, 0], [8, 0, 0]]
    }, 
    {
      "op": "null", 
      "name": "prelu2_gamma", 
      "attr": {
        "__init__": "[\"Constant\", {\"value\": 0.25}]", 
        "act_type": "prelu"
      }, 
      "inputs": []
    }, 
    {
      "op": "LeakyReLU", 
      "name": "prelu2", 
      "attr": {"act_type": "prelu"}, 
      "inputs": [[9, 0, 0], [10, 0, 0]]
    }, 
    {
      "op": "null", 
      "name": "conv3_weight", 
      "attr": {
        "kernel": "(3, 3)", 
        "num_filter": "32"
      }, 
      "inputs": []
    }, 
    {
      "op": "null", 
      "name": "conv3_bias", 
      "attr": {
        "kernel": "(3, 3)", 
        "num_filter": "32"
      }, 
      "inputs": []
    }, 
    {
      "op": "Convolution", 
      "name": "conv3", 
      "attr": {
        "kernel": "(3, 3)", 
        "num_filter": "32"
      }, 
      "inputs": [[11, 0, 0], [12, 0, 0], [13, 0, 0]]
    }, 
    {
      "op": "null", 
      "name": "prelu3_gamma", 
      "attr": {
        "__init__": "[\"Constant\", {\"value\": 0.25}]", 
        "act_type": "prelu"
      }, 
      "inputs": []
    }, 
    {
      "op": "LeakyReLU", 
      "name": "prelu3", 
      "attr": {"act_type": "prelu"}, 
      "inputs": [[14, 0, 0], [15, 0, 0]]
    }, 
    {
      "op": "null", 
      "name": "conv4_1_weight", 
      "attr": {
        "kernel": "(1, 1)", 
        "num_filter": "2"
      }, 
      "inputs": []
    }, 
    {
      "op": "null", 
      "name": "conv4_1_bias", 
      "attr": {
        "kernel": "(1, 1)", 
        "num_filter": "2"
      }, 
      "inputs": []
    }, 
    {
      "op": "Convolution", 
      "name": "conv4_1", 
      "attr": {
        "kernel": "(1, 1)", 
        "num_filter": "2"
      }, 
      "inputs": [[16, 0, 0], [17, 0, 0], [18, 0, 0]]
    }, 
    {
      "op": "null", 
      "name": "label", 
      "inputs": []
    }, 
    {
      "op": "SoftmaxOutput", 
      "name": "cls_prob", 
      "attr": {
        "multi_output": "True", 
        "out_grad": "True", 
        "use_ignore": "True"
      }, 
      "inputs": [[19, 0, 0], [20, 0, 0]]
    }, 
    {
      "op": "null", 
      "name": "conv4_2_weight", 
      "attr": {
        "kernel": "(1, 1)", 
        "num_filter": "4"
      }, 
      "inputs": []
    }, 
    {
      "op": "null", 
      "name": "conv4_2_bias", 
      "attr": {
        "kernel": "(1, 1)", 
        "num_filter": "4"
      }, 
      "inputs": []
    }, 
    {
      "op": "Convolution", 
      "name": "conv4_2", 
      "attr": {
        "kernel": "(1, 1)", 
        "num_filter": "4"
      }, 
      "inputs": [[16, 0, 0], [22, 0, 0], [23, 0, 0]]
    }, 
    {
      "op": "Reshape", 
      "name": "conv4_2_reshape", 
      "attr": {"shape": "(-1, 4)"}, 
      "inputs": [[24, 0, 0]]
    }, 
    {
      "op": "null", 
      "name": "bbox_target", 
      "inputs": []
    }, 
    {
      "op": "LinearRegressionOutput", 
      "name": "bbox_pred", 
      "attr": {
        "grad_scale": "1", 
        "out_grad": "True"
      }, 
      "inputs": [[25, 0, 0], [26, 0, 0]]
    }, 
    {
      "op": "Custom", 
      "name": "negative_mining", 
      "attr": {"op_type": "negativemining"}, 
      "inputs": [[21, 0, 0], [27, 0, 0], [20, 0, 0], [26, 0, 0]]
    }
  ], 
  "arg_nodes": [
    0, 
    1, 
    2, 
    4, 
    7, 
    8, 
    10, 
    12, 
    13, 
    15, 
    17, 
    18, 
    20, 
    22, 
    23, 
    26
  ], 
  "node_row_ptr": [
    0, 
    1, 
    2, 
    3, 
    4, 
    5, 
    6, 
    7, 
    8, 
    9, 
    10, 
    11, 
    12, 
    13, 
    14, 
    15, 
    16, 
    17, 
    18, 
    19, 
    20, 
    21, 
    22, 
    23, 
    24, 
    25, 
    26, 
    27, 
    28, 
    32
  ], 
  "heads": [[28, 0, 0], [28, 1, 0], [28, 2, 0], [28, 3, 0]], 
  "attrs": {"mxnet_version": ["int", 1100]}
}